LSF job: 478392
==================================================
n_bins=233337 (padded to 233344) | latent_dim=16 | samples=53973
ConvVAE(
  (enc): ConvEncoder(
    (conv): Sequential(
      (0): Sequential(
        (0): Conv1d(1, 32, kernel_size=(7,), stride=(2,), padding=(3,))
        (1): BatchNorm1d(32, eps=1e-05, momentum=0.1, affine=True, track_running_stats=True)
        (2): ReLU()
      )
      (1): Sequential(
        (0): Conv1d(32, 64, kernel_size=(7,), stride=(2,), padding=(3,))
        (1): BatchNorm1d(64, eps=1e-05, momentum=0.1, affine=True, track_running_stats=True)
        (2): ReLU()
      )
      (2): Sequential(
        (0): Conv1d(64, 128, kernel_size=(7,), stride=(2,), padding=(3,))
        (1): BatchNorm1d(128, eps=1e-05, momentum=0.1, affine=True, track_running_stats=True)
        (2): ReLU()
      )
      (3): Sequential(
        (0): Conv1d(128, 256, kernel_size=(7,), stride=(2,), padding=(3,))
        (1): BatchNorm1d(256, eps=1e-05, momentum=0.1, affine=True, track_running_stats=True)
        (2): ReLU()
      )
      (4): Sequential(
        (0): Conv1d(256, 256, kernel_size=(7,), stride=(2,), padding=(3,))
        (1): BatchNorm1d(256, eps=1e-05, momentum=0.1, affine=True, track_running_stats=True)
        (2): ReLU()
      )
    )
    (mu): Linear(in_features=1866752, out_features=16, bias=True)
    (logvar): Linear(in_features=1866752, out_features=16, bias=True)
  )
  (dec): ConvDecoder(
    (proj): Linear(in_features=16, out_features=1866752, bias=True)
    (deconv): Sequential(
      (0): Sequential(
        (0): ConvTranspose1d(256, 256, kernel_size=(7,), stride=(2,), padding=(3,), output_padding=(1,))
        (1): BatchNorm1d(256, eps=1e-05, momentum=0.1, affine=True, track_running_stats=True)
        (2): ReLU()
      )
      (1): Sequential(
        (0): ConvTranspose1d(256, 128, kernel_size=(7,), stride=(2,), padding=(3,), output_padding=(1,))
        (1): BatchNorm1d(128, eps=1e-05, momentum=0.1, affine=True, track_running_stats=True)
        (2): ReLU()
      )
      (2): Sequential(
        (0): ConvTranspose1d(128, 64, kernel_size=(7,), stride=(2,), padding=(3,), output_padding=(1,))
        (1): BatchNorm1d(64, eps=1e-05, momentum=0.1, affine=True, track_running_stats=True)
        (2): ReLU()
      )
      (3): Sequential(
        (0): ConvTranspose1d(64, 32, kernel_size=(7,), stride=(2,), padding=(3,), output_padding=(1,))
        (1): BatchNorm1d(32, eps=1e-05, momentum=0.1, affine=True, track_running_stats=True)
        (2): ReLU()
      )
      (4): Sequential(
        (0): ConvTranspose1d(32, 1, kernel_size=(7,), stride=(2,), padding=(3,), output_padding=(1,))
        (1): BatchNorm1d(1, eps=1e-05, momentum=0.1, affine=True, track_running_stats=True)
        (2): ReLU()
      )
    )
  )
)
